models/model_weights_v1.pth (torch, 71873 bytes, 6 tensors)

conv_layer_1.weight f4 [4, 1, 3, 3]
00000000: 9817 b23e b521 cf3e 7de6 a03e 0216 77be
00000010: 0146 453e 0f66 233f 5c6a 52be dc59 4e3e
00000020: 87da b73e e540 82be f6d9 ec3e 8413 22be
00000030: 9677 f6be eec1 4bbe 890e f5be 8bc0 12bd
00000040: 604b fcbd 83d7 6ebe 37e2 e53e 56f7 bd3e
00000050: 04ca 193f 34de 963e 8b5c dabd fff4 ecbe
00000060: 931f 19bf 71db 18bf ffbc 0ebd 52d7 603d
00000070: 100a d53e 350b 583e ca0e f53e 78d6 e73e
00000080: 570b 013e f2e3 c23e 0c49 89bd b5b3 593c
0.34783626 0.40455404 0.3142585 -0.24129489 0.19264986 0.63827604 -0.20548385 0.20151466
0.3590891 -0.25440136 0.4626004 -0.15827757 -0.48138112 -0.19898197 -0.47862652 -0.035828155
-0.12319064 -0.23324399 0.4489915 0.37102765 0.60073876 0.29466403 -0.106621824 -0.46280667
-0.59813803 -0.5970984 -0.03484821 0.054892845 0.4160924 0.21098025 0.47862846 0.45280814
0.12601982 0.38064533 -0.06703386 0.013287474

conv_layer_1.bias f4 [4]
00000000: 0b51 083d 6e0a 883e 60ed bc3c f7eb 17bd
0.033280414 0.26570457 0.023062408 -0.037090268

linear_layer_1.weight f4 [64, 256]
00000000: 3a48 9f3d 62ca c0bc 833f 82bc 44c7 dabd
00000010: e31f 25bd 4153 48bd e4ee 31bd 562e a5bd
00000020: 49d2 513b 9af6 e93b 0029 c3bd ac33 bb3c
00000030: 373f 51bd fca9 abbd bed9 72bd 13e9 5fbd
00000040: dee2 443d 39a9 853d 6df9 083d ac28 19bc
00000050: 4691 f13d bb95 8e3d 8ef0 ad3d 3ecb 3d3b
00000060: 080b b93d 8dae 47bc 076d 78bd e65d 4b3d
00000070: d08a 2a3e 8b98 153d a859 743d 209c 1c3d
00000080: 3552 8f3d 5090 9bbc b09f d9bd c00d 5dbd
00000090: 3792 0abe a621 bfbd dfbc 4c3c 4555 5a3d
000000a0: 153f 5c3d fee3 32bd 9141 db3c 075b 11be
000000b0: 1415 71bd 5bd0 d8bc 2e6c d83d cf40 a8bd
000000c0: 47f0 d33d 3b12 9e3d 81c2 093d 3991 083d
000000d0: 274c 1cbc 7dc9 eabc 2a2e c2bd 3fdd 6fbd
000000e0: 1abb a83d d8b1 253e 1290 d83d 8d58 993d
000000f0: 2ed0 eb3d 6bec f1bb 3d16 fdbd 7e3a 94bd
00000100: 5743 063d 9e20 9b3d 77a3 b93c c2cb 2e3d
00000110: f3e0 0dbc 8fe2 e23c 1bf7 183d 4b8d 003c
00000120: 39c1 983a 77ea 0c3c 102e 363d 1db9 c7bb
00000130: 2e2f 7a3d c0ec 2d3d f00e 413d 119f 04bc
00000140: 903e 053d a0c7 cdbc b48a a5bd a0c1 0d3b
00000150: 10cc abbd a8a1 9dbd 3f50 8a3c 0299 0b3d
00000160: 1910 963d f0d2 4f3d e558 9e3d 9ab0 003e
00000170: 1198 52bd 9297 b8bb 5e9c f13c 99ac ee3c
00000180: 0970 27bc cb28 1c3c 4a92 3a3e b94c 673e
00000190: 0d9e 7d3e 482b fa3d 219b 043e 2edf cd3c
000001a0: 987b ae3c 086b 973c d60b e43d d806 093e
000001b0: a944 3f3e 969d b33d f214 c0bc 81f6 eb3c
000001c0: a270 203d d823 aebc bbd3 af3a d398 ff3c
000001d0: 15bd 123e 87df 403c 72c0 da3d 61f8 26bc
000001e0: 4d17 b03d 5c16 803d f1a5 86bc 2963 0cbd
000001f0: 340d fabd 86ff 553c ea06 af3d 022e 9f3c
00000200: 5709 ec3c eb06 cf3c 1ab3 13bd eaf5 b43d
00000210: 4a82 be3c 15cc d23b cae6 8ebc da3f 4c3b
00000220: 37da 803d 2372 a73d 9c28 0c3d 0272 82bd
00000230: eb13 44be 0530 6bbe aa21 38be c241 c5bd
00000240: adeb 093e 78d9 d43d d495 e4bc 3dc3 b6bd
00000250: 9afa 37be 319d d4bd 64df c9bd 550b 8bbb
00000260: 6bd5 053d 55e3 ce3d a98a e23d d4c6 983d
00000270: e022 1e3e 0338 233e bdb9 743d 4cd6 1f3d
00000280: 54c2 8e3d 2c13 bdbc 4320 eebc 4a81 c63b
00000290: fb7f 81be 2252 d4bc a86a 7dbd d508 f0bd
000002a0: 143e b93c 2ebb 9abd 9955 aabd ad90 37be
000002b0: 5771 56be f4b1 9ebd f245 3f3c 338b 34bc
000002c0: 4573 a73d b7e9 d83d 465b 9238 1073 babd
000002d0: 5541 22be 01a1 aabd ec41 f73b 9daf 61bd
000002e0: 1264 ac3d 34ef c13d 67fb 023e b31f 943d
000002f0: 97a7 863c 060d 1f3d 6240 32bd 0bc8 07be
00000300: 587b 753d 508d 25bd d674 3ebe 61e2 16be
00000310: 6f82 ffbd 871b 04be 819c 08be ee25 18be
00000320: bfd6 703e 7790 203c e063 c2bd 9cfd 82bd
00000330: d6c3 94bd a63b 09bd f6d2 c7bd 9cd5 53bd
00000340: fcfc ae3e ea54 af3d 0d55 74bb ef24 903c
00000350: b1ac 2e3c 7886 fc3d 6db5 60bc fff4 eb3c
00000360: 18a2 453e 548a 863d 304d ae3c 9d5c 05be
00000370: 618e 1f3e ab1d a93d 4903 9bbd d18a a43d
00000380: dfd0 903d f206 e7bd 4fb7 5fbd 44c6 28be
00000390: 63dc d3bd 1548 33bd 9ce9 68bd f8d9 81bd
000003a0: 5825 173d 6a44 033b a077 f4bc 482d 9fbd
000003b0: 8e75 0abe 85df 0e3c 2fb4 ae3d 692b 39bd
000003c0: a800 f63d 6065 af3d 40c8 223e 2176 0d3d
000003d0: 810e 963d a670 3ab7 79b9 c5bd 5949 05be
000003e0: 2f4d 853d 809d 283e aedb 063d 53cb 0e3d
000003f0: 73ae 953d 28e0 b73d 5224 e7bd 4bb4 8ebe
0.07777448 -0.023534004 -0.015899425 -0.10682538 -0.040313613 -0.048907522 -0.043440714 -0.080654785
0.003201621 0.007139993 -0.095293045 0.022851788 -0.051085677 -0.08382031 -0.059289686 -0.054665636
0.04806792 0.06526417 0.033440996 -0.009348076 0.11795287 0.069621526 0.08493148 0.0028960253
0.09035307 -0.012187612 -0.06065085 0.049650095 0.16654515 0.03652243 0.059655815 0.03823483
0.069981016 -0.018989712 -0.10626161 -0.05396819 -0.13532339 -0.0933259 0.012496202 0.053303976
0.053771097 -0.04367446 0.026764663 -0.1419488 -0.058857992 -0.02646654 0.10567509 -0.08215486
0.10348564 0.07718321 0.03363276 0.03334162 -0.0095396405 -0.02866053 -0.09481461 -0.058560606
0.08238812 0.16181123 0.10574354 0.07487593 0.115143165 -0.0073829195 -0.12357757 -0.07237719
0.032779064 0.075745806 0.022660954 0.042674787 -0.008659589 0.027695922 0.037345033 0.007846187
0.0011654265 0.008600823 0.044477522 -0.0060950653 0.06108015 0.04246211 0.047133386 -0.008094565
0.032530367 -0.025119603 -0.08083096 0.0021630302 -0.08388531 -0.07696849 0.016883967 0.034081466
0.07327289 0.050738275 0.07731799 0.12567368 -0.051414553 -0.005633303 0.029493507 0.029135035
-0.010219582 0.00953121 0.18219867 0.22587861 0.24767323 0.122152865 0.12949802 0.025130834
0.021299168 0.018483654 0.1113507 0.13381517 0.18678536 0.087702915 -0.023447488 0.028804066
0.039169915 -0.021257326 0.0013414541 0.031200802 0.14329942 0.011772043 0.10681237 -0.010191054
0.08598194 0.06254265 -0.016436549 -0.034274254 -0.122095495 0.01306141 0.08546241 0.019431118
0.028813047 0.025271853 -0.036059476 0.08835967 0.023255486 0.00643302 -0.017444033 0.0031165988
0.06291621 0.08176067 0.034218416 -0.063694015 -0.19148223 -0.22967537 -0.17981592 -0.09631683
0.1346881 0.10393041 -0.027903475 -0.089239575 -0.1796669 -0.103815444 -0.098570615 -0.0042432942
0.032674234 0.10101954 0.110616036 0.074597985 0.15442991 0.15939336 0.059747446 0.03902273
0.06970659 -0.02308043 -0.029068118 0.006057893 -0.25292954 -0.02591807 -0.061869293 -0.117204346
0.022612609 -0.07555233 -0.08317108 -0.17926283 -0.20941673 -0.077487856 0.011674391 -0.011019516
0.08176283 0.105914526 6.9788235e-05 -0.09103978 -0.15845235 -0.0833149 0.0075457003 -0.05509912
0.084175244 0.094694525 0.12791215 0.07232609 0.016437335 0.03883078 -0.04351843 -0.13259904
0.059932083 -0.04041797 -0.18599257 -0.14734794 -0.1247605 -0.12901126 -0.13340952 -0.14858219
0.23519419 0.009800068 -0.09491706 -0.063960284 -0.07263915 -0.03350415 -0.097570345 -0.051717386
0.34177387 0.08561118 -0.003728214 0.017595736 0.01066129 0.123303354 -0.01371513 0.028803347
0.19300115 0.06569353 0.02127704 -0.1302361 0.15581657 0.08257612 -0.07568986 0.0803429
0.07071089 -0.112806216 -0.054618176 -0.16481882 -0.1034477 -0.043769915 -0.056863412 -0.06340402
0.03690085 0.0020029792 -0.029842198 -0.077723086 -0.13521406 0.008720283 0.08530461 -0.045207415
0.12011844 0.085642576 0.15896702 0.034536485 0.07326985 -1.1112692e-05 -0.09654517 -0.13016261
0.06508862 0.16466331 0.032924347 0.034861874 0.07308664 0.08978301 -0.112862244 -0.27871928

linear_layer_1.bias f4 [64]
00000000: 7584 843d f984 91bd 8f73 a9bd 3d1e 4b3c
00000010: 6c29 593d f4dc 8abd f906 f13c d0dc 443c
00000020: 17c3 93bc a681 47bc 87c7 c93c dfbc 25bd
00000030: ad01 6abc 2e0c af3d 1763 a8bd 3648 443b
00000040: bfec a7bc 905c 8fbc aa08 de3c c57b 0fbd
00000050: a11b 713c 1324 5bbd 0bc0 84bc c10d 5e3d
00000060: e910 29bd 03be a63c 58e9 a3bc 412a b53d
00000070: 4c3d 35bd ff11 cf3d 7e3d 14bd f3a6 f3bc
00000080: dcde 373d 5777 2dbd e179 88bc 008a 903d
00000090: 7a19 af3d f2c9 f7ba d9c2 89bc 2096 bb3d
000000a0: 7b84 c13d 7ba0 e93b 7137 2c3b e054 da3c
000000b0: 7d90 5d3c e081 d8bd 3ff0 7d3c 1775 883d
000000c0: a377 4bbd 0b7b 603d a944 883d 6c75 873c
000000d0: 265b 79bd 7fee f33c 90e8 b8bd b29c 94ba
000000e0: 2260 cb3b 1d5f b13c ee08 703d 5c3e 163d
000000f0: b905 bd3d c4ca 93bc 899d c23d 3658 53bd
0.06470577 -0.07105441 -0.08273994 0.012397346 0.05301802 -0.06780425 0.02942227 0.012015536
-0.018037362 -0.012176907 0.024631275 -0.040463325 -0.014282626 0.08547245 -0.08222025 0.0029950268
-0.020498632 -0.017500192 0.02710374 -0.035030145 0.01471606 -0.0535012 -0.016204854 0.054212335
-0.041275892 0.020354277 -0.020008728 0.0884595 -0.04424791 0.10110854 -0.036191456 -0.029742694
0.04489027 -0.04235014 -0.016659679 0.070575714 0.08549781 -0.0018904789 -0.016816543 0.091594934
0.09449097 0.0071297265 0.0026278163 0.0266518 0.013523218 -0.10571647 0.015499174 0.06662958
-0.04967464 0.054804843 0.06653721 0.016535483 -0.06087794 0.02977681 -0.09028733 -0.0011338203
0.0062065283 0.021651799 0.058602266 0.036680564 0.09229607 -0.018041022 0.09502704 -0.051597796

linear_layer_2.weight f4 [10, 64]
00000000: 37a0 bd3e e347 a33e 74ad 8d3d 3e7d 203e
00000010: c5ba 1cbe 8073 aa3e d313 8c3e a530 09bf
00000020: 956e 773e ea2f eb3d 5f13 f03c 9853 073d
00000030: 7ae1 993e 9de5 d03e c58f 413e 8f53 95be
00000040: 47bd ea3e 7eca 943e 86d0 86bd 0d54 79be
00000050: 7fdf 833e 30a4 383d bc77 1ebe eee1 dabe
00000060: 8e0b 04bf 6042 50be 2352 04bf 4e78 b73e
00000070: d7b9 a23e 7ece a8be ad35 2e3d ace9 923d
00000080: deec c2bd cc31 2f3e 6c87 efbd f70a f8bd
00000090: a5a9 0b3f 4ce1 3dbd 1c06 9abd 62a7 57be
000000a0: 69e2 353d 7f36 a33c 2885 1dbe 2ae0 33be
000000b0: 3659 1abe e43c b73e 9177 d7be d5a4 643e
000000c0: 638c a9be 7e0c a53e ee01 5f3e 7953 07be
000000d0: f761 86be ef8b 5b3d 2f0c c43e 95c7 13be
000000e0: a7d0 81bd bb14 55bb 95ae 6b3e a4cc dcbe
000000f0: b161 b33d 238d 093e 5ede ccbe d558 e83e
00000100: aa6b e63e 3e4d 6fbe 49a9 a13e 440d 8cbe
00000110: 4844 b33e 7115 32be d26c c93e dcc4 0a3d
00000120: 503f 41bd 241b 033f 59fa d03e 21e2 fbbe
00000130: d09d 743e d1a4 d63e 64c2 403e 99b9 a0bd
00000140: e09d b2bd df73 a9be 2ff1 ea3e a07d 943e
00000150: 3344 63be 9681 073d 4125 6f3e 470e 6b3e
00000160: a977 563e 8017 923e de50 b6be 7924 bb3e
00000170: e69f d1be e5cb 823e 9e1a d73e de66 c1be
00000180: 3a54 973e 0655 ee3d f845 f03e e622 d43e
00000190: b2ba 023f 3d57 ed3e 502a d8bd 3aa5 013f
000001a0: c90a 053f 8592 efbe c71b e63d a557 93bd
000001b0: 2216 bd3e 5e56 89be 9e57 0d3e 1e86 23be
000001c0: 369e 98be 0fc0 35bd 9618 7b3e 17c9 dc3e
000001d0: 1a82 03be 2489 dfbe c6c1 b83e aff7 803e
000001e0: 5d57 a53e adc8 ed3e f013 19be b962 c63d
000001f0: 1d4d b93e fbba 85be da8f 1dbe 7e11 833c
00000200: 0b76 12be 3089 263e 687a 003e 7732 95bd
00000210: 22e4 a73e 4078 88be aba3 74be 04cd debd
00000220: 7d3d 20be 7fa7 b83c 5336 ffbd 0f46 053e
00000230: fe3d babd 4d29 9e3e c10b 97be 1dae 96be
00000240: 5de0 663c 42fd 2e3b e085 ccbe f646 75be
00000250: 2c0b 1c3d a58a db3d a280 d63d 9196 c73d
00000260: 3f75 323e b4e7 813d 1736 8cbe f744 69be
00000270: 2f0c 7b3e 7c3a f03d 9978 343e c473 b9be
00000280: a537 b8bd d0dd 31be 0125 20be fbb4 6bbd
00000290: 46b1 303d 16d6 57be 9c4c dbbd 365b a8bc
000002a0: cfde 16be 0845 84be e409 d63e ef8f 8ebe
000002b0: bafb 78be 2552 143d f1ff d7bd 8dd3 95bd
000002c0: 3270 8abe ead3 80be 29e7 833d 1f37 913e
000002d0: b8e6 d5be cbf7 a8be 338b e93d d9aa 8dbe
000002e0: b43e 893e e47f 63be 0396 49be b539 2b3e
000002f0: b2e7 42be 7892 85be 34c2 463e 3792 bf3e
00000300: 95f5 1b3e 8d68 ad3d 92f5 6d3e 6f8e 593e
00000310: 940f c93e 5ffd 4e3e f166 64be 383e 81be
00000320: 4d82 92be 95fd 28be 22b6 9dbd 13a5 253e
00000330: da4a 74bd ccc8 f6bd b292 923d f543 9cbe
00000340: 0a0c 99bd 3d95 8abe e4da c83e 0cbe 883e
00000350: ef31 b3bd d950 44bd 5da3 ef3d eeb1 5c3e
00000360: a285 563e a131 893e 4cb0 413d c4c3 0bbd
00000370: 6c2c a1be 4080 01be 4089 9fbd eb42 8d3e
00000380: 2fb3 d1bc 4436 6c3e a392 b0bd b119 cd3e
00000390: 9af9 04be f360 88be 63bd 63bd 91f6 8ebd
000003a0: 961f 8b3d 3e12 1b3e ff47 91be 85dd 563e
000003b0: 07f6 a8be 489d 2e3e 5f10 8ebe 879d b6be
000003c0: 7290 183e 0077 c7be 9128 53be 6f19 93bd
000003d0: 46ba 413e 649b 51be fbbb d73d 82af fa3d
000003e0: 8b6c 073d 35c6 d83b 8524 11be 46f7 733c
000003f0: 1af4 aabd ecc6 003e a719 7f3d 77eb c93e
0.37036297 0.31890783 0.06917849 0.15672776 -0.15305622 0.33291245 0.27358875 -0.5358985
0.24163277 0.11483748 0.029306112 0.033038706 0.30054837 0.4080018 0.189025 -0.29165313
0.45847532 0.2906074 -0.065827414 -0.24348469 0.2575645 0.045078456 -0.15475363 -0.42750496
-0.5158013 -0.2033782 -0.5168783 0.35833973 0.3178241 -0.3297004 0.042531658 0.071734756
-0.09517835 0.1710884 -0.116957515 -0.121114664 0.5455573 -0.046357438 -0.075206965 -0.21059945
0.044405375 0.019923447 -0.15382826 -0.1756598 -0.15073094 0.35788643 -0.4208341 0.22328503
-0.3311492 0.32236093 0.2177808 -0.13215436 -0.26246616 0.053600248 0.38290545 -0.14431603
-0.063386254 -0.0032513577 0.23015817 -0.43124878 0.087588675 0.13432746 -0.40013403 0.45380273
0.45004016 -0.2336931 0.31574467 -0.2735387 0.35013032 -0.17390992 0.39340836 0.033879146
-0.04717952 0.5121329 0.40816 -0.4919596 0.23888326 0.4192262 0.18824154 -0.078479
-0.087215185 -0.33096215 0.45887133 0.29002094 -0.22193985 0.033082567 0.23354055 0.22954665
0.20944084 0.28533554 -0.35608572 0.36551264 -0.40942305 0.25546184 0.42012495 -0.37773794
0.29556447 0.11637311 0.46928382 0.41432875 0.51066124 0.4635562 -0.105549455 0.5064274
0.5196958 -0.46791473 0.11235767 -0.07194451 0.36930948 -0.26823705 0.13802955 -0.1596913
-0.29808205 -0.044372614 0.24521098 0.4312217 -0.12842599 -0.43659317 0.36085337 0.25188968
0.32293215 0.46442166 -0.14949012 0.096867986 0.36191645 -0.26119217 -0.15386906 0.015999552
-0.14302842 0.1626327 0.12546694 -0.07285016 0.3279124 -0.26654243 -0.2389056 -0.108789474
-0.15648456 0.022540806 -0.124615334 0.13015006 -0.09093855 0.30890885 -0.29501155 -0.29429713
0.014091578 0.0026701246 -0.3994589 -0.2395285 0.03809659 0.10719804 0.104737535 0.09745515
0.17427538 0.06343022 -0.27385017 -0.22780214 0.24516366 0.11729905 0.1762413 -0.36221135
-0.08994988 -0.17369771 -0.15639116 -0.057545643 0.04313781 -0.21077761 -0.107079715 -0.020551305
-0.14733432 -0.25833917 0.4180442 -0.27844188 -0.24314776 0.03621115 -0.10546864 -0.07315741
-0.27038723 -0.25161678 0.06440575 0.28362367 -0.41777587 -0.3300155 0.11403503 -0.2766941
0.2680565 -0.22216755 -0.19686131 0.16721232 -0.19033697 -0.2608831 0.1941002 0.3741624
0.15230401 0.08467207 0.23238209 0.2124574 0.39269698 0.20213841 -0.22304894 -0.25242782
-0.28615037 -0.16502984 -0.07700755 0.16176252 -0.059641697 -0.12050018 0.07156886 -0.30520597
-0.074729994 -0.27066985 0.392295 0.26707494 -0.087497585 -0.047928665 0.11701081 0.2155225
0.20949414 0.26795676 0.04728727 -0.034122244 -0.31479204 -0.1264658 -0.0778985 0.27590117
-0.025598137 0.23067576 -0.08621719 0.40058663 -0.1298584 -0.26636466 -0.055600535 -0.069806226
0.06793134 0.15143678 -0.2837524 0.2098294 -0.33000204 0.17052186 -0.27746865 -0.3566706
0.14898852 -0.38957977 -0.20620944 -0.071825854 0.18918714 -0.20469433 0.10533901 0.12240507
0.0330625 0.006615425 -0.14174087 0.014890498 -0.0834734 0.12575883 0.062280323 0.39437458

linear_layer_2.bias f4 [10]
00000000: 8f2f aabd 8fce f0bc 7b11 a93d 4947 53bc
00000010: a628 9bbd e963 b2bb cbe4 be3b c385 943d
00000020: 0a03 02be c4f2 d23b
-0.08309852 -0.02939537 0.08255287 -0.012895414 -0.075761124 -0.005444039 0.005825614 0.072520755
-0.12696472 0.0064376313
