models/model_weights_v1.pth (torch, 108491 bytes, 8 tensors)

conv_layer_1.weight f4 [4, 1, 3, 3]
-0.34772307 0.08549068 0.2854395 -0.37458447 -0.34034932 0.3902878 0.06279584 -0.15319358
0.24245495 -0.34481168 -0.5008639 -0.41053414 0.23490092 -0.11042725 -0.14821166 0.41726938
0.12367614 0.4900009 -0.075025976 0.16525583 -0.08909476 0.042709205 0.32443422 -0.2906263
0.19131961 0.12744606 -0.17035043 0.20940763 -0.061943505 -0.08291605 -0.22168714 0.2172821
0.014822371 0.4322012 0.20167495 0.4470949
00000000: c208 b2be bd15 af3d 2025 923e 89c9 bfbe
00000010: 4442 aebe cdd3 c73e 1b9b 803d c7de 1cbe
00000020: 1c46 783e 288b b0be 9e38 00bf 8831 d2be
00000030: de89 703e af27 e2bd ccc4 17be 55a4 d53e
00000040: eb49 fd3d 66e1 fa3e 38a7 99bd d338 293e
00000050: 5077 b6bd d9ef 2e3d 3e1c a63e f8cc 94be
00000060: 4ae9 433e 3881 023e 5870 2ebe f46e 563e
00000070: 79b8 7dbd e4cf a9bd f401 63be 337f 5e3e
00000080: 88d9 723c 7a49 dd3e e183 4e3e 9fe9 e43e

conv_layer_1.bias f4 [4]
0.009805457 0.07942616 -0.06485152 -0.27816406
00000000: 11a7 203c 2faa a23d e0d0 84bd 856b 8ebe

conv_layer_2.weight f4 [8, 4, 3, 3]
0.1343463 0.15802875 0.14517991 0.0038167115 0.0510127 0.05236706 0.14955705 0.07975798
-0.036273267 -0.2778529 -0.39803076 -0.28353488 -0.27663106 -0.36448398 0.012477981 -0.23783675
-0.2774521 -0.08843305 0.3682507 0.16039863 0.14002912 0.08370849 0.09654294 0.2789304
0.41306558 0.18308459 0.10110341 0.08945281 0.071771786 0.16725156 0.10669023 0.32567453
0.008168172 0.46795174 0.1951325 0.30009973 -0.19049063 0.10854959 -0.08046297 -0.26860085
0.00018838013 0.0029479347 -0.45547602 -0.32606286 0.09706057 0.28205612 -0.028998012 -0.0027786149
0.14324775 -0.04245143 -0.18483828 -0.03987344 -0.17838208 -0.17132828 -0.28024852 0.013293063
0.092600785 -0.013929379 -0.1682487 -0.005510403 -0.03663918 -0.1211061 -0.011140048 0.10496297
0.18695316 0.26577282 0.08392644 0.21116044 0.051765043 0.11978751 -0.06242009 0.25496808
0.30114573 0.31845883 0.22883418 0.18446349 0.0735264 0.31133032 0.037709523 0.290702
0.27257216 -0.06948089 -0.11106468 -0.1631723 -0.016175725 -0.2094031 0.021081109 -0.077434264
-0.26935336 -0.0031200296 0.09978745 0.042012837 0.26355702 0.18941045 0.26120022 0.19050771
0.044715308 0.26744485 0.20464593 -0.0053014793 0.130264 -0.11515591 -0.15290448 -0.1326978
-0.043365162 0.09850595 0.14221483 0.22491707 -0.29126546 -0.19362517 0.018306961 -0.21448883
-0.068251185 0.24206987 -0.19355796 0.18070889 0.25592682 0.027014526 0.12960015 0.18974306
-0.22658442 -0.006103822 0.24734157 -0.1458711 0.09659442 0.0016480155 0.38478118 0.36908358
-0.32927442 0.3313309 0.06662938 -0.31416458 -0.05483286 -0.06292422 -0.13320838 0.06871922
-0.16002472 -0.2788123 -0.12371701 -0.26617235 -0.01339824 -0.18266109 -0.17554057 0.21470822
0.03782959 0.026944539 -0.017564856 -0.08614365 -0.121079564 -0.0043599904 -0.04306295 -0.019194359
0.10570894 -0.022724407 0.14490697 -0.14184268 0.03239316 -0.17186898 -0.37424335 -0.054467775
-0.5020874 -0.38945916 -0.022934793 0.004450889 -0.058987647 0.084671445 0.17346872 0.089888066
0.21625315 -0.06152973 0.23336807 -0.011416008 0.14193808 0.16987559 0.188541 0.14138536
0.022776352 0.30319554 0.014834302 0.07072166 0.02141208 0.23521344 0.29141453 -0.064350486
0.18461318 0.35241026 0.2227473 0.18778747 0.3990322 -0.16632639 -0.30686858 -0.10146341
-0.30915752 -0.22235246 -0.08330788 -0.22922286 -0.5023103 -0.3488058 -0.1413428 -0.18025969
0.09713337 -0.20073588 -0.08398474 0.09734376 -0.29669043 -0.17934124 -0.12558852 -0.05325438
0.13732012 0.001539803 -0.11100933 0.1025353 0.02828655 0.061460182 -0.08973321 0.040064476
-0.21223944 -0.15471716 -0.12916107 -0.24430223 0.0075932136 -0.19091448 0.05093359 -0.23482144
-0.08770431 0.15110767 0.28621924 0.39777604 0.22746164 0.2165272 0.1604028 0.12946561
0.38529995 0.38506737 -0.01473596 0.036831826 -0.22589853 -0.06228079 -0.20343646 -0.12265448
-0.06821564 -0.17260784 -0.15648675 -0.0053149103 0.17876309 0.0022146397 0.09952062 0.21312165
0.28743643 0.1809465 0.01148462 0.20390815 0.032746047 -0.046051223 0.19220117 -0.18712033
00000000: 1492 093e 4ad2 213e 0baa 143e cb21 7a3b
00000010: b1f2 503d d87e 563d 7c25 193e 2758 a33d
00000020: 4793 14bd bc42 8ebe b0ca cbbe 7c2b 91be
00000030: 96a2 8dbe a59d babe 7270 4c3c 7a8b 73be
00000040: 340e 8ebe 631c b5bd 5b8b bc3e 8a3f 243e
00000050: cb63 0f3e 5b6f ab3d 4eb8 c53d f7cf 8e3e
00000060: 557d d33e 877a 3b3e 4e0f cf3d 0933 b73d
00000070: 16fd 923d fe43 2b3e 6880 da3d d0be a63e
00000080: ccd3 053c 5f97 ef3e d0d0 473e aca6 993e
00000090: fa0f 43be 3f4f de3d c5c9 a4bd 0d86 89be
000000a0: e887 4539 2332 413b 2734 e9be b6f1 a6be
000000b0: b1c7 c63d a969 903e 3d8d edbc 6c19 36bb
000000c0: 8aaf 123e 8de1 2dbd 3f46 3dbe 5552 23bd
000000d0: cba9 36be ae70 2fbe bc7c 8fbe 26cb 593c
000000e0: 7ba5 bd3d 0d38 64bc 6349 2cbe 9c90 b4bb
000000f0: f712 16bd 7a06 f8bd bf84 36bc d3f6 d63d
00000100: a670 3f3e 6013 883e a0e1 ab3d 713a 583e
00000110: 9507 543d 2753 f53d 35ac 7fbd 2d8b 823e
00000120: c62f 9a3e 090d a33e 8253 6a3e ffe3 3c3e
00000130: 0295 963d b066 9f3e 4d75 1a3d e4d6 943e
00000140: 948e 8b3e ff4b 8ebd e175 e3bd a416 27be
00000150: f482 84bc c46d 56be 4ab2 ac3c db95 9ebd
00000160: afe8 89be 6979 4cbb 5d5d cc3d a715 2c3d
00000170: f2f0 863e d0f4 413e 09bc 853e 7414 433e
00000180: 6627 373d 88ee 883e b48e 513e 08b8 adbb
00000190: ed63 053e ddd6 ebbd fe92 1cbe efe1 07be
000001a0: ab9f 31bd 7dbd c93d c4a0 113e a950 663e
000001b0: bf20 95be ad45 46be 7bf8 953c f6a2 5bbe
000001c0: 47c7 8bbd 2ae1 773e 0f34 46be c00b 393e
000001d0: d708 833e 914d dd3c e7b5 043e 014c 423e
000001e0: bf05 68be 9202 c8bb 1c47 7d3e 3c5f 15be
000001f0: 4cd3 c53d 3902 d83a 0a02 c53e 86f8 bc3e
00000200: a896 a8be 34a4 a93e fc74 883d 2eda a0be
00000210: 6c98 60bd 6ade 80bd c767 08be aabc 8c3d
00000220: 85dd 23be 7cc0 8ebe 585f fdbd be47 88be
00000230: 4b84 5bbc 820b 3bbe e8c0 33be 79dc 5b3e
00000240: 33f3 1a3d cbba dc3c 2ce4 8fbc 156c b0bd
00000250: 90f8 f7bd 40de 8ebb c762 30bd 7d3d 9dbc
00000260: ee7d d83d 8928 babc 7e62 143e 353f 11be
00000270: b1ae 043d 6cfe 2fbe d39c bfbe 9a19 5fbd
00000280: cd88 00bf 3167 c7be bfe1 bbbc c3d8 913b
00000290: 089d 71bd 3968 ad3d c9a1 313e 3c17 b83d
000002a0: 7771 5d3e 9906 7cbd 0af8 6e3e 350a 3bbc
000002b0: 3758 113e def3 2d3e e410 413e 53c7 103e
000002c0: 7995 ba3c 723c 9b3e 920b 733c 85d6 903d
000002d0: 6368 af3c cbdb 703e 4934 953e 30ca 83bd
000002e0: 3d0b 3d3e 1e6f b43e de17 643e 5c4b 403e
000002f0: f34d cc3e 7751 2abe e11d 9dbe 0ccc cfbd
00000300: e549 9ebe 5db0 63be 529d aabd 66b9 6abe
00000310: 6897 00bf ac96 b2be 2bbc 10be ff95 38be
00000320: dced c63d b58d 4dbe 3100 acbd 2a5c c73d
00000330: cfe7 97be 3ba5 37be 479a 00be 4421 5abd
00000340: a59d 0c3e 37d3 c93a dc58 e3bd 07fe d13d
00000350: 32b9 e73c acbd 7b3d 0cc6 b7bd a61a 243d
00000360: 4c55 59be 2d6e 1ebe cd42 04be 5d2a 7abe
00000370: 7ed0 f83b 167f 43be bd9f 503d 0875 70be
00000380: 519e b3bd f8bb 1a3e 548b 923e 4da9 cb3e
00000390: b4eb 683e 4eb9 5d3e a240 243e a292 043e
000003a0: 0946 c53e 8d27 c53e 196f 71bc f8dc 163d
000003b0: f251 67be 241a 7fbd a651 50be 4632 fbbd
000003c0: a4b4 8bbd 1cc0 30be 103e 20be b328 aebb
000003d0: ac0d 373e 7d23 113b 78d1 cb3d 903c 5a3e
000003e0: de2a 933e 0a4a 393e fd29 3c3c 4ccd 503e
000003f0: b820 063d 35a0 3cbd 62d0 443e 799c 3fbe

conv_layer_2.bias f4 [8]
-0.042735636 -0.035795566 -0.13817057 0.08410193 -0.027214376 -0.11762909 0.06278043 -0.14103243
00000000: 900b 2fbd 5f9e 12bd 967c 0dbe a23d ac3d
00000010: aff0 debc 85e7 f0bd 0793 803d ce6a 10be

linear_layer_1.weight f4 [64, 392]
0.15053043 -0.11661578 -0.10424939 -0.09208598 -0.14880194 -0.16191912 -0.23392008 0.027773166
-0.10386572 -0.03404909 -0.06543503 -0.02999117 0.12725113 0.118064225 -0.1259849 -0.07320826
-0.11378345 -0.0928297 0.03125287 0.17843427 0.1599407 -0.17507581 -0.09382847 -0.10526082
-0.10735267 0.032898925 0.080789275 0.06980925 -0.03903342 -0.08509034 -0.07863495 -0.011607658
0.029658912 -0.022405796 -0.012696622 0.0531859 0.08630993 0.01590966 -0.025871258 -0.004970831
0.058194596 -0.11120742 0.15199038 0.12631412 0.036454756 0.04820283 0.034602188 -0.02850655
0.016935464 0.2265796 0.10374079 0.070673086 0.103976965 0.074924834 0.031627785 -0.03739375
0.12196695 0.12731378 0.069333814 0.1525274 0.018875103 -0.042590838 -0.0060529993 0.059775162
0.062237788 -0.044908732 0.025297938 0.027625421 0.0762555 -0.015215233 -0.059959956 -0.13336703
-0.10880548 0.004529915 0.033148333 0.11426078 0.037757993 -0.05836972 -0.08826058 0.017776571
0.019806027 -0.017384749 -0.0074337604 -0.08462747 0.04294115 -0.011584672 0.018338438 -0.0060442667
0.010124234 -0.068482704 -0.0037727025 0.117588796 0.058889672 0.045727585 0.010813647 0.009402391
0.010460413 0.03697144 -0.027280962 -0.055407513 -0.02733771 -0.085739724 -0.105935015 -0.06687669
-0.30957782 0.005138938 0.027558884 -0.007714351 -0.030401722 0.0609482 0.10878332 0.111213684
-0.036172662 -0.015844202 -0.11135013 -0.067487374 0.0609906 0.09881052 0.15536149 -0.108003885
-0.051062256 -0.05862001 -0.0001397082 0.0050700726 0.12876426 0.046420388 -0.017051319 0.0040351734
-0.06718206 -0.0823154 0.034928508 -0.020786436 -0.08543325 0.052999612 0.051428467 -0.013169859
0.0008730286 0.060383316 0.108891584 0.0026303632 0.05254414 0.0052224966 -0.006499111 0.04866123
0.03877867 0.062139843 0.072319835 -0.018586699 -0.02155303 0.0038297465 -0.14492813 -0.30764678
-0.23476864 -0.12859264 0.03057936 0.09584619 -0.0138071375 -0.27366427 -0.14891194 -0.06378444
-0.012267761 0.08468592 0.08306563 -0.040005647 -0.042770162 0.06678339 0.17168903 0.04987906
0.034796398 0.04193687 0.08084058 0.09044999 0.027773472 0.17373344 0.1534375 0.009652863
0.18356624 0.09335243 0.018056674 0.04800089 0.040097166 0.009380937 0.07605167 0.06675349
0.084817894 0.07532148 0.07090022 0.10583834 0.03835286 0.07446625 0.13940576 0.09662516
0.09262815 0.074391685 0.07003912 0.026700476 0.033679068 0.15812908 0.24854402 0.24892724
0.051503167 -0.09980367 -0.22338526 0.22922729 0.024643222 0.021452852 -0.010304002 -0.009800105
-0.021508474 0.016159972 0.14094917 0.027012372 0.009601963 -0.037327398 -0.035051007 0.06887657
0.095634304 -0.065460525 -0.067394495 -0.10200016 0.0030647279 0.015524574 0.12110945 0.0897905
-0.033738256 -0.009085081 0.0021147407 -0.0049116393 0.020455282 0.033623897 -0.08254659 0.043701448
0.06476437 0.06517727 0.06068414 0.050902113 -0.010672065 -0.04071671 0.09725528 0.09964192
0.046452023 -0.01840459 -0.022819923 -0.10304134 0.016252978 0.12415816 -0.07368293 0.0017846283
-0.13516393 -0.21221714 -0.25606567 -0.16379023 -0.03225197 0.008856468 0.067129366 0.076310575
00000000: a624 1a3e 41d4 eebd b480 d5bd 9397 bcbd
00000010: 895f 18be 20ce 25be bf88 6fbe 8d84 e33c
00000020: 8db7 d4bd 0f77 0bbd cd02 86bd 0bb0 f5bc
00000030: 1f4e 023e a8cb f13d 3002 01be 36ee 95bd
00000040: 4c07 e9bd 7f1d bebd 0203 003d 79b7 363e
00000050: 7fc7 233e 1347 33be 2429 c0bd fc92 d7bd
00000060: b7db dbbd 06c1 063d d974 a53d 27f8 8e3d
00000070: 82e1 1fbd d843 aebd 5c0b a1bd 0c2e 3ebc
00000080: 3ff7 f23c 5c8c b7bc 7e05 50bc 75d9 593d
00000090: 43c3 b03d fa54 823c f6ef d3bc 5ae2 a2bb
000000a0: 755d 6e3d b7c0 e3bd 5ea3 1b3e 7d58 013e
000000b0: 9551 153d 5570 453d 06bb 0d3d 9186 e9bc
000000c0: 3ebc 8a3c 7c04 683e 0d76 d43d 0dbd 903d
000000d0: e0f1 d43d 3172 993d 238c 013d 302a 19bd
000000e0: cfc9 f93d 8b5e 023e e3fe 8d3d 2530 1c3e
000000f0: f69f 9a3c bb73 2ebd 3d58 c6bb cdd6 743d
00000100: 0ded 7e3d 38f2 37bd 9f3d cf3c b54e e23c
00000110: d82b 9c3d 5049 79bc 9298 75bd 5e91 08be
00000120: 68d5 debd ae6f 943b 8cc6 073d 8e01 ea3d
00000130: 20a8 1a3d 1615 6fbd f7c1 b4bd 2ca0 913c
00000140: 4040 a23c 766a 8ebc e796 f3bb 2b51 adbd
00000150: 0fe3 2f3d a3cd 3dbc 7e3a 963c fc0e c6bb
00000160: 1de0 253c a940 8cbd 723f 77bb 65d2 f03d
00000170: 4c36 713d d94c 3b3d b92b 313c 7c0c 1a3c
00000180: 2762 2b3c 5d6f 173d 537c dfbc fdf2 62bd
00000190: 55f3 dfbc 4f98 afbd 75f4 d8bd a5f6 88bd
000001a0: fc80 9ebe 8964 a83b 2bc3 e13c abc8 fcbb
000001b0: 080d f9bc d2a4 793d cac9 de3d 00c4 e33d
000001c0: c929 14bd b3cb 81bc 890b e4bd d236 8abd
000001d0: 48d1 793d 2b5d ca3d 1517 1f3e 2431 ddbd
000001e0: a826 51bd 891b 70bd a27e 12b9 da22 a63b
000001f0: c7da 033e 4e23 3e3d 35af 8bbc 7d39 843b
00000200: bf96 89bd fa94 a8bd 3211 0f3d 5148 aabc
00000210: a1f7 aebd 1f16 593d a8a6 523d 64c6 57bc
00000220: f5db 643a 7f54 773d 8d02 df3d 2c62 2c3b
00000230: 8638 573d 7a21 ab3b 7ff6 d4bb ff50 473d
00000240: 62d6 1e3d 5986 7e3d 6c1c 943d 2243 98bc
00000250: fb8f b0bc 7cfc 7a3b 0a68 14be e183 9dbe
00000260: 3167 70be caad 03be 9181 fa3c 024b c43d
00000270: 5537 62bc b91d 8cbe 5f7c 18be 6ba1 82bd
00000280: b8fe 48bc d06f ad3d 501e aa3d f6dc 23bd
00000290: c42f 2fbd bbc5 883d 40cf 2f3e fc4d 4c3d
000002a0: ab86 0e3d ffc5 2b3d bf8f a53d d83d b93d
000002b0: 3185 e33c 2ee7 313e b81e 1d3e 0b27 1e3c
000002c0: caf8 3b3e 8f2f bf3d 97eb 933c 959c 443d
000002d0: ed3c 243d 80b2 193c fac0 9b3d 0eb6 883d
000002e0: 01b5 ad3d 2642 9a3d 2234 913d c6c1 d83d
000002f0: e317 1d3d c381 983d 62c0 0e3e 69e3 c53d
00000300: d4b3 bd3d ab5a 983d ac70 8f3d f5ba da3c
00000310: 10f3 093d 97ec 213e 5382 7e3e c8e6 7e3e
00000320: fcf4 523d de65 ccbd 1bbf 64be 8fba 6a3e
00000330: 95e0 c93c e4bd af3c 1ed2 28bc 9f90 20bc
00000340: 8a32 b0bc eb61 843c fb54 103e 0d49 dd3c
00000350: 8d51 1d3c 9de4 18bd a591 0fbd 290f 8d3d
00000360: ebdb c33d 2b10 86bd 2006 8abd 76e5 d0bd
00000370: 9ad9 483b c85a 7e3c 3b08 f83d 15e4 b73d
00000380: 2031 0abd 97d9 14bc 7697 0a3b d1f1 a0bb
00000390: d691 a73c 36b9 093d 300e a9bd 4a00 333d
000003a0: 2fa3 843d a97b 853d ef8f 783d bc7e 503d
000003b0: e3d9 2ebc 91c6 26bd c72d c73d 1011 cc3d
000003c0: 7a44 3e3d 39c5 96bc d9f0 babc 5707 d3bd
000003d0: f724 853c a246 fe3d 13e7 96bd 30ea e93a
000003e0: 6a68 0abe 734f 59be 0a1b 83be a0b8 27be
000003f0: a41a 04bd b81a 113c 1f7b 893d b848 9c3d

linear_layer_1.bias f4 [64]
-0.100709826 0.044863213 -0.013399983 0.0036935438 -0.04989186 -0.033778653 -0.026662251 -0.03632005
0.02629856 0.054348197 0.0650019 0.07577501 0.02261527 0.055166528 0.08173555 -0.013225662
-0.04970215 -0.012794333 -0.042694595 0.0551055 0.014992615 -0.0012272461 -0.023335122 -0.046553876
0.003976625 0.053147733 0.061365604 -0.054729264 -0.096471965 0.047655202 -0.05225869 -0.113801196
0.013479485 0.050130494 0.06963112 0.023249758 0.0042033284 -0.054562967 0.04173369 0.03891299
0.035171412 -0.054942727 -0.019843297 -0.007218943 0.06868355 0.060156114 0.023615927 0.061192263
0.0018705928 -0.0316661 0.041115005 0.06546803 0.066332825 0.039374832 -0.0099272635 -0.009327289
0.05942148 0.14751716 0.025615092 0.09427035 0.029192185 -0.08261543 -0.08315846 -0.004373094
00000000: f440 cebd 7dc2 373d 9a8b 5bbc 620f 723b
00000010: 685b 4cbd 7c5b 0abd cb6a dabc 55c4 14bd
00000020: 1470 d73c 379c 5e3d b71f 853d ee2f 9b3d
00000030: a943 b93c 4cf6 613d f864 a73d 72b0 58bc
00000040: 7b94 4bbd 529f 51bc 87e0 2ebd 4eb6 613d
00000050: 96a3 753c 8cdb a0ba 4c29 bfbc 47af 3ebd
00000060: 594e 823b 70b1 593d 805a 7b3d cb2b 60bd
00000070: 1893 c5bd 1a32 433d 350d 56bd 9a10 e9bd
00000080: 0fd9 5c3c a255 4d3d c39a 8e3d 4776 be3c
00000090: 13bc 893b 6b7d 5fbd f2f0 2a3d 3a63 1f3d
000000a0: e60f 103d a00b 61bd 698e a2bc e28c ecbb
000000b0: f6a9 8c3d 4266 763d 3076 c13c bda4 7a3d
000000c0: ae2e f53a 50b4 01bd 3568 283d 1a14 863d
000000d0: 81d9 873d 8147 213d f6a5 22bc 7cd1 18bc
000000e0: f063 733d bd0e 173e bed6 d13c d010 c13d
000000f0: 7324 ef3c 4732 a9bd fc4e aabd 2c4c 8fbb

linear_layer_final.weight f4 [10, 64]
-0.23926951 -0.23021737 -0.9229545 -0.37784088 -0.77868605 0.11535736 -0.6360499 -0.7157036
-0.5178796 0.1796322 -0.68704796 -0.6723616 0.021123126 -0.44262895 -0.39076132 -0.094662465
-0.0850672 -0.07565835 -0.32680702 0.023058444 -0.20290469 -0.24057773 -0.7254018 -0.41808638
-0.031165635 -0.46546957 -0.4399915 -0.14301117 0.05462001 -0.19441366 0.08572665 -0.05596667
-0.07043774 -0.53725666 0.081103526 -0.025643004 -0.06635937 -0.16317423 -0.0280648 -0.1361691
0.013234726 -0.37007305 -0.2942145 -0.059476316 -0.29033783 0.05764061 0.06809778 -0.14434679
-0.57043844 -0.49363023 -0.78550476 -0.0068131215 0.06574969 -0.33889803 -0.3140792 -0.3150545
-0.018628351 -0.058498252 0.064002074 -0.44667676 0.07338388 0.018731441 -0.08847071 -0.40944037
-0.3136231 0.04602479 0.23204458 -0.02397001 -0.22427012 0.018692307 -0.058678836 -0.04256999
-0.1542122 -0.2394309 0.043926656 0.39272797 -0.22095811 0.09760381 0.25072092 -0.32514888
0.004949019 -0.64593214 0.017240433 -0.20505728 0.15624598 0.23397547 -0.45783982 -0.54241836
-0.36333677 -0.5213509 -0.03739007 0.2698767 -0.12064608 -0.24634507 -0.34515506 -0.1791246
-0.4697821 0.19765154 -0.5330802 -0.22985044 0.0147015285 0.06644151 0.093543775 -0.03714086
-0.42599025 -0.4622272 0.1270985 -0.39343804 -0.14599526 -0.40730804 0.15157847 -0.4806717
-0.45112717 0.11548506 0.26049298 -0.14964832 -0.46550143 -0.6296593 -0.022892453 0.09918174
0.16781275 0.12861553 -0.19608314 0.02533049 -0.40670913 -0.22804809 -0.09656663 0.21345724
0.07610973 -0.1218198 0.14576057 -0.42357028 -0.4361879 0.09381911 0.061764527 -0.53503543
0.004070956 -0.18484156 -0.023640342 -0.9109231 0.098524995 -0.10601348 -0.21531709 0.013304233
0.0012011557 -0.12779093 0.15786803 -0.2450501 -0.26389885 0.08798975 -0.25390992 -0.4020167
-0.33133227 -0.30312982 0.09498292 -0.09115973 -0.23870054 0.1424237 -0.3769234 -0.34690663
-0.23953469 -0.10208888 -0.023176514 -0.23237701 0.09972274 0.07598646 -0.27525836 -0.32398555
-0.3081422 -0.06973953 -0.22907025 0.01549601 -0.15820828 0.1526045 -0.1910766 -0.00042038306
-0.42649385 -0.24732861 0.027158087 0.04021835 -0.10804823 -0.037789132 -0.1844524 0.048498366
-0.034767345 -0.121741556 0.08039763 0.0943362 0.026692519 0.062818035 -0.44338435 0.0164207
0.059076566 -0.008172107 -0.34742683 -0.2735953 -0.045007236 -0.10789081 -0.49372607 -0.2582858
0.060462613 0.15366736 0.103893004 -0.58223593 0.060538225 -0.09903613 -0.26103473 -0.06362791
-0.07732722 -0.07691426 -0.3980091 -0.2015015 0.047696646 -0.08701123 0.05739116 0.072867714
-0.22034097 0.106692314 0.11667858 -0.18269323 -0.1432427 0.064240135 -0.15985996 -0.41875502
-0.3623687 -0.037359666 -0.12086537 -0.17403279 -0.22268106 0.053769752 0.0013532358 0.03434346
-0.24581395 0.14904784 -0.48002672 -0.18472211 -0.28597367 -0.22445644 -0.17803948 -0.13787824
0.054295447 -0.23199107 -0.38177568 0.018224329 0.065255 -0.08333295 0.15392685 -0.25586644
0.09970654 0.036280867 0.015497379 -0.032385893 -0.41027045 -0.29533884 -0.4230467 -0.4213688
00000000: 1103 75be 1abe 6bbe bf46 6cbf 5c74 c1be
00000010: f857 47bf 7b40 ec3d 2bd4 22bf 5a38 37bf
00000020: c293 04bf 81f1 373e 60e2 2fbf e41f 2cbf
00000030: 680a ad3c 43a0 e2be de11 c8be 65de c1bd
00000040: b637 aebd c4f2 9abd 4053 a7be 10e5 bc3c
00000050: 3fc6 4fbe 025a 76be efb3 39bf 6b0f d6be
00000060: 134f ffbc 0752 eebe 9146 e1be 8571 12be
00000070: 3bb9 5f3d 6014 47be 7491 af3d 4f3d 65bd
00000080: a941 90bd a789 09bf 9b19 a63d 4711 d2bc
00000090: 6ce7 87bd 2517 27be 27e8 e5bc ea6f 0bbe
000000a0: 77d6 583c 377a bdbe 48a3 96be 709d 73bd
000000b0: 29a7 94be 8f18 6c3d d976 8b3d a5cf 13be
000000c0: 4108 12bf 1abd fcbe d716 49bf 9b40 dfbb
000000d0: c6a7 863d 0b84 adbe fdce a0be d34e a1be
000000e0: 7c9a 98bc dd9b 6fbd 8513 833d d1b2 e4be
000000f0: 4a4a 963d ae72 993c 2230 b5bd 2ba2 d1be
00000100: 3593 a0be 7d84 3c3d 189d 6d3e c15c c4bc
00000110: 11a7 65be 9c20 993c 3859 70bd df5d 2ebd
00000120: cee9 1dbe 602d 75be 70ec 333d a413 c93e
00000130: d842 62be 82e4 c73d 7e5e 803e ea79 a6be
00000140: 612b a23b cf5b 25bf cf3b 8d3c 89fa 51be
00000150: f2fe 1f3e 4497 6f3e fb69 eabe eedb 0abf
00000160: 4707 babe 4177 05bf 5426 19bd 472d 8a3e
00000170: 4b15 f7bd e241 7cbe 2ab8 b0be 706c 37be
00000180: 4887 f0be 2a65 4a3e f277 08bf ea5d 6bbe
00000190: aede 703c 7d12 883d e193 bf3d 0421 18bd
000001a0: 651b dabe 0ba9 ecbe 1c26 023e b670 c9be
000001b0: c87f 15be ae8a d0be 6337 1b3e 9a1a f6be
000001c0: 24fa e6be 6e83 ec3d 565f 853e 693d 19be
000001d0: 3456 eebe 5a31 21bf f488 bbbc cc1f cb3d
000001e0: 1bd7 2b3e cab3 033e 05ca 48be e381 cf3c
000001f0: 2e3c d0be 7085 69be bac4 c5bd 8994 5a3e
00000200: 6bdf 9b3d a97c f9bd 4242 153e 34de d8be
00000210: 0554 dfbe 3c24 c03d cdfc 7c3d 15f8 08bf
00000220: a765 853b 1b47 3dbe 64a9 c1bc 4232 69bf
00000230: 79c7 c93d 981d d9bd 157c 5cbe fff9 593c
00000240: 1970 9d3a a0db 02be 28a8 213e 6aee 7abe
00000250: c01d 87be f833 b43d 7b00 82be 22d5 cdbe
00000260: 62a4 a9be d533 9bbe 6886 c23d f4b1 babd
00000270: ea6d 74be 85d7 113e 1bfc c0be bf9d b1be
00000280: 9548 75be fa13 d1bd acdc bdbc 3df4 6dbe
00000290: 703b cc3d ca9e 9b3d aaee 8cbe 6fe1 a5be
000002a0: d0c4 9dbe 99d3 8ebd 6491 6abe fae2 7d3c
000002b0: 5a01 22be 5b44 1c3e 96a9 43be dc66 dcb9
000002c0: 675d dabe b643 7dbe a37a de3c ffbb 243d
000002d0: 6448 ddbd c7c8 1abd 17e1 3cbe 39a6 463d
000002e0: 3468 0ebd a353 f9bd 83a7 a43d 5633 c13d
000002f0: 45aa da3c bea6 803d 4603 e3be b484 863c
00000300: 45fa 713d 4de4 05bc eee1 b1be af14 8cbe
00000310: 8259 38bd dbf5 dcbd aac9 fcbe 093e 84be
00000320: a5a7 773d fa5a 1d3e dbc5 d43d 6a0d 15bf
00000330: eef6 773d 74d3 cabd 58a6 85be 5a4f 82bd
00000340: bc5d 9ebd 3985 9dbd d9c7 cbbe 6956 4ebe
00000350: 8f5d 433d f232 b2bd fe12 6b3d ab3b 953d
00000360: 10a1 61be 8081 da3d 2ef5 ee3d ef13 3bbe
00000370: 37ae 12be 5590 833d 54b2 23be 0f67 d6be
00000380: 6488 b9be 7306 19bd 4388 f7bd a735 32be
00000390: 8106 64be ac3d 5c3d 0f5f b13a baab 0c3d
000003a0: a7b6 7bbe ff9f 183e 10c6 f5be cb27 3dbe
000003b0: 246b 92be e9d7 65be fb4f 36be f42f 0dbe
000003c0: e764 5e3d 118f 6dbe 1a78 c3be 304b 953c
000003d0: 6aa4 853d 77aa aabd 009f 1d3e ed00 83be
000003e0: f132 cc3d 3f9b 143d b8e8 7d3c 12a7 04bd
000003f0: f80e d2be a736 97be 9499 d8be a7bd d7be

linear_layer_final.bias f4 [10]
-0.12871899 0.18557023 -0.09430758 -0.21648663 0.0036054743 -0.024254808 -0.21170154 -0.065607734
-0.034186892 -0.09015331
00000000: e9ce 03be 1f06 3e3e 5524 c1bd acae 5dbe
00000010: d249 6c3b 05b2 c6bc 4ac8 58be 595d 86bd
00000020: 8e07 0cbd 4ca2 b8bd
